…
W0615 16:02:16.269396 35184372403808 module_wrapper.py:139] From /sw/summit/ibm-wml-ce/anaconda-base/envs/ibm-wml-ce-1.6.2-3/lib/python3.6/site-packages/keras/backend/tensorflow_backend.py:1020: The name tf.assign is deprecated. Please use tf.compat.v1.assign instead.

Model: "model_5"
__________________________________________________________________________________________________
Layer (type)                    Output Shape         Param #     Connected to                     
==================================================================================================
input_1 (InputLayer)            (None, 24, 24, 1)    0                                            
__________________________________________________________________________________________________
conv2d_1 (Conv2D)               (None, 12, 12, 16)   160         input_1[0][0]                    
__________________________________________________________________________________________________
conv2d_2 (Conv2D)               (None, 4, 4, 16)     2320        conv2d_1[0][0]                   
__________________________________________________________________________________________________
conv2d_3 (Conv2D)               (None, 2, 2, 16)     2320        conv2d_2[0][0]                   
__________________________________________________________________________________________________
conv2d_4 (Conv2D)               (None, 2, 2, 16)     2320        conv2d_3[0][0]                   
__________________________________________________________________________________________________
flatten_1 (Flatten)             (None, 64)           0           conv2d_4[0][0]                   
__________________________________________________________________________________________________
dropout_1 (Dropout)             (None, 64)           0           flatten_1[0][0]                  
__________________________________________________________________________________________________
dense_1 (Dense)                 (None, 32)           2080        dropout_1[0][0]                  
__________________________________________________________________________________________________
dense_2 (Dense)                 (None, 7)            231         dense_1[0][0]                    
__________________________________________________________________________________________________
dense_3 (Dense)                 (None, 7)            231         dense_1[0][0]                    
__________________________________________________________________________________________________
lambda_1 (Lambda)               (None, 7)            0           dense_2[0][0]                    
                                                                 dense_3[0][0]                    
__________________________________________________________________________________________________
dense_4 (Dense)                 (None, 32)           256         lambda_1[0][0]                   
__________________________________________________________________________________________________
dense_5 (Dense)                 (None, 64)           2112        dense_4[0][0]                    
__________________________________________________________________________________________________
reshape_1 (Reshape)             (None, 2, 2, 16)     0           dense_5[0][0]                    
__________________________________________________________________________________________________
conv2d_transpose_1 (Conv2DTrans (None, 2, 2, 16)     2320        reshape_1[0][0]                  
__________________________________________________________________________________________________
conv2d_transpose_2 (Conv2DTrans (None, 4, 4, 16)     2320        conv2d_transpose_1[0][0]         
__________________________________________________________________________________________________
conv2d_transpose_3 (Conv2DTrans (None, 12, 12, 16)   2320        conv2d_transpose_2[0][0]         
__________________________________________________________________________________________________
conv2d_transpose_4 (Conv2DTrans (None, 24, 24, 1)    145         conv2d_transpose_3[0][0]         
==================================================================================================
Total params: 19,135
Trainable params: 19,135
Non-trainable params: 0
_________________________________________________Model: "model_5"
__________________________________________________________________________________________________
Layer (type)                    Output Shape         Param #     Connected to                     
==================================================================================================
input_1 (InputLayer)            (None, 24, 24, 1)    0                                            
__________________________________________________________________________________________________
conv2d_1 (Conv2D)               (None, 12, 12, 16)   160         input_1[0][0]                    
__________________________________________________________________________________________________
conv2d_2 (Conv2D)               (None, 4, 4, 16)     2320        conv2d_1[0][0]                   
__________________________________________________________________________________________________
conv2d_3 (Conv2D)               (None, 2, 2, 16)     2320        conv2d_2[0][0]                   
__________________________________________________________________________________________________
conv2d_4 (Conv2D)               (None, 2, 2, 16)     2320        conv2d_3[0][0]                   
__________________________________________________________________________________________________
flatten_1 (Flatten)             (None, 64)           0           conv2d_4[0][0]                   
__________________________________________________________________________________________________
dropout_1 (Dropout)             (None, 64)           0           flatten_1[0][0]                  
__________________________________________________________________________________________________
dense_1 (Dense)                 (None, 32)           2080        dropout_1[0][0]                  
__________________________________________________________________________________________________
dense_2 (Dense)                 (None, 7)            231         dense_1[0][0]                    
__________________________________________________________________________________________________
dense_3 (Dense)                 (None, 7)            231         dense_1[0][0]                    
__________________________________________________________________________________________________
lambda_1 (Lambda)               (None, 7)            0           dense_2[0][0]                    
                                                                 dense_3[0][0]                    
__________________________________________________________________________________________________
dense_4 (Dense)                 (None, 32)           256         lambda_1[0][0]                   
__________________________________________________________________________________________________
dense_5 (Dense)                 (None, 64)           2112        dense_4[0][0]                    
__________________________________________________________________________________________________
reshape_1 (Reshape)             (None, 2, 2, 16)     0           dense_5[0][0]                    
__________________________________________________________________________________________________
conv2d_transpose_1 (Conv2DTrans (None, 2, 2, 16)     2320        reshape_1[0][0]                  
__________________________________________________________________________________________________
conv2d_transpose_2 (Conv2DTrans (None, 4, 4, 16)     2320        conv2d_transpose_1[0][0]         
__________________________________________________________________________________________________
conv2d_transpose_3 (Conv2DTrans (None, 12, 12, 16)   2320        conv2d_transpose_2[0][0]         
__________________________________________________________________________________________________
conv2d_transpose_4 (Conv2DTrans (None, 24, 24, 1)    145         conv2d_transpose_3[0][0]         
==================================================================================================
Total params: 19,135
Trainable params: 19,135
Non-trainable params: 0
__________________________________________________________________________________________________
Epoch 1/10
_________________________________________________
Epoch 1/10
Model: "model_5"
__________________________________________________________________________________________________
Layer (type)                    Output Shape         Param #     Connected to                     
==================================================================================================
input_1 (InputLayer)            (None, 24, 24, 1)    0                                            
__________________________________________________________________________________________________
conv2d_1 (Conv2D)               (None, 12, 12, 16)   160         input_1[0][0]                    
__________________________________________________________________________________________________
conv2d_2 (Conv2D)               (None, 4, 4, 16)     2320        conv2d_1[0][0]                   
__________________________________________________________________________________________________
conv2d_3 (Conv2D)               (None, 2, 2, 16)     2320        conv2d_2[0][0]                   
__________________________________________________________________________________________________
conv2d_4 (Conv2D)               (None, 2, 2, 16)     2320        conv2d_3[0][0]                   
__________________________________________________________________________________________________
flatten_1 (Flatten)             (None, 64)           0           conv2d_4[0][0]                   
__________________________________________________________________________________________________
dropout_1 (Dropout)             (None, 64)           0           flatten_1[0][0]                  
__________________________________________________________________________________________________
dense_1 (Dense)                 (None, 32)           2080        dropout_1[0][0]                  
__________________________________________________________________________________________________
dense_2 (Dense)                 (None, 7)            231         dense_1[0][0]                    
__________________________________________________________________________________________________
dense_3 (Dense)                 (None, 7)            231         dense_1[0][0]                    
__________________________________________________________________________________________________
lambda_1 (Lambda)               (None, 7)            0           dense_2[0][0]                    
                                                                 dense_3[0][0]                    
__________________________________________________________________________________________________
dense_4 (Dense)                 (None, 32)           256         lambda_1[0][0]                   
__________________________________________________________________________________________________
dense_5 (Dense)                 (None, 64)           2112        dense_4[0][0]                    
__________________________________________________________________________________________________
reshape_1 (Reshape)             (None, 2, 2, 16)     0           dense_5[0][0]                    
__________________________________________________________________________________________________
conv2d_transpose_1 (Conv2DTrans (None, 2, 2, 16)     2320        reshape_1[0][0]                  
__________________________________________________________________________________________________
conv2d_transpose_2 (Conv2DTrans (None, 4, 4, 16)     2320        conv2d_transpose_1[0][0]         
__________________________________________________________________________________________________
conv2d_transpose_3 (Conv2DTrans (None, 12, 12, 16)   2320        conv2d_transpose_2[0][0]         
__________________________________________________________________________________________________
conv2d_transpose_4 (Conv2DTrans (None, 24, 24, 1)    145         conv2d_transpose_3[0][0]         
==================================================================================================
Total params: 19,135
Trainable params: 19,135
Non-trainable params: 0
__________________________________________________________________________________________________
Epoch 1/10
Model: "model_5"
__________________________________________________________________________________________________
Layer (type)                    Output Shape         Param #     Connected to                     
==================================================================================================
input_1 (InputLayer)            (None, 24, 24, 1)    0                                            
__________________________________________________________________________________________________
conv2d_1 (Conv2D)               (None, 12, 12, 16)   160         input_1[0][0]                    
__________________________________________________________________________________________________
conv2d_2 (Conv2D)               (None, 4, 4, 16)     2320        conv2d_1[0][0]                   
__________________________________________________________________________________________________
conv2d_3 (Conv2D)               (None, 2, 2, 16)     2320        conv2d_2[0][0]                   
__________________________________________________________________________________________________
conv2d_4 (Conv2D)               (None, 2, 2, 16)     2320        conv2d_3[0][0]                   
__________________________________________________________________________________________________
flatten_1 (Flatten)             (None, 64)           0           conv2d_4[0][0]                   
__________________________________________________________________________________________________
dropout_1 (Dropout)             (None, 64)           0           flatten_1[0][0]                  
__________________________________________________________________________________________________
dense_1 (Dense)                 (None, 32)           2080        dropout_1[0][0]                  
__________________________________________________________________________________________________
dense_2 (Dense)                 (None, 7)            231         dense_1[0][0]                    
__________________________________________________________________________________________________
dense_3 (Dense)                 (None, 7)            231         dense_1[0][0]                    
__________________________________________________________________________________________________
lambda_1 (Lambda)               (None, 7)            0           dense_2[0][0]                    
                                                                 dense_3[0][0]                    
__________________________________________________________________________________________________
dense_4 (Dense)                 (None, 32)           256         lambda_1[0][0]                   
__________________________________________________________________________________________________
dense_5 (Dense)                 (None, 64)           2112        dense_4[0][0]                    
__________________________________________________________________________________________________
reshape_1 (Reshape)             (None, 2, 2, 16)     0           dense_5[0][0]                    
__________________________________________________________________________________________________
conv2d_transpose_1 (Conv2DTrans (None, 2, 2, 16)     2320        reshape_1[0][0]                  
__________________________________________________________________________________________________
conv2d_transpose_2 (Conv2DTrans (None, 4, 4, 16)     2320        conv2d_transpose_1[0][0]         
__________________________________________________________________________________________________
conv2d_transpose_3 (Conv2DTrans (None, 12, 12, 16)   2320        conv2d_transpose_2[0][0]         
__________________________________________________________________________________________________
conv2d_transpose_4 (Conv2DTrans (None, 24, 24, 1)    145         conv2d_transpose_3[0][0]         
==================================================================================================
Total params: 19,135
Trainable params: 19,135
Non-trainable params: 0
_________________________________________________Model: "model_5"
__________________________________________________________________________________________________
Layer (type)                    Output Shape         Param #     Connected to                     
==================================================================================================
input_1 (InputLayer)            (None, 24, 24, 1)    0                                            
__________________________________________________________________________________________________
conv2d_1 (Conv2D)               (None, 12, 12, 16)   160         input_1[0][0]                    
__________________________________________________________________________________________________
conv2d_2 (Conv2D)               (None, 4, 4, 16)     2320        conv2d_1[0][0]                   
__________________________________________________________________________________________________
conv2d_3 (Conv2D)               (None, 2, 2, 16)     2320        conv2d_2[0][0]                   
__________________________________________________________________________________________________
conv2d_4 (Conv2D)               (None, 2, 2, 16)     2320        conv2d_3[0][0]                   
__________________________________________________________________________________________________
flatten_1 (Flatten)             (None, 64)           0           conv2d_4[0][0]                   
__________________________________________________________________________________________________
dropout_1 (Dropout)             (None, 64)           0           flatten_1[0][0]                  
__________________________________________________________________________________________________
dense_1 (Dense)                 (None, 32)           2080        dropout_1[0][0]                  
__________________________________________________________________________________________________
dense_2 (Dense)                 (None, 7)            231         dense_1[0][0]                    
__________________________________________________________________________________________________
dense_3 (Dense)                 (None, 7)            231         dense_1[0][0]                    
__________________________________________________________________________________________________
lambda_1 (Lambda)               (None, 7)            0           dense_2[0][0]                    
                                                                 dense_3[0][0]                    
__________________________________________________________________________________________________
dense_4 (Dense)                 (None, 32)           256         lambda_1[0][0]                   
__________________________________________________________________________________________________
dense_5 (Dense)                 (None, 64)           2112        dense_4[0][0]                    
__________________________________________________________________________________________________
reshape_1 (Reshape)             (None, 2, 2, 16)     0           dense_5[0][0]                    
__________________________________________________________________________________________________
conv2d_transpose_1 (Conv2DTrans (None, 2, 2, 16)     2320        reshape_1[0][0]                  
__________________________________________________________________________________________________
conv2d_transpose_2 (Conv2DTrans (None, 4, 4, 16)     2320        conv2d_transpose_1[0][0]         
__________________________________________________________________________________________________
conv2d_transpose_3 (Conv2DTrans (None, 12, 12, 16)   2320        conv2d_transpose_2[0][0]         
__________________________________________________________________________________________________
conv2d_transpose_4 (Conv2DTrans (None, 24, 24, 1)    145         conv2d_transpose_3[0][0]         
==================================================================================================
Total params: 19,135
Trainable params: 19,135
Non-trainable params: 0
_________________________________________________Model: "model_5"
__________________________________________________________________________________________________
Layer (type)                    Output Shape         Param #     Connected to                     
==================================================================================================
input_1 (InputLayer)            (None, 24, 24, 1)    0                                            
__________________________________________________________________________________________________
conv2d_1 (Conv2D)               (None, 12, 12, 16)   160         input_1[0][0]                    
__________________________________________________________________________________________________
conv2d_2 (Conv2D)               (None, 4, 4, 16)     2320        conv2d_1[0][0]                   
__________________________________________________________________________________________________
conv2d_3 (Conv2D)               (None, 2, 2, 16)     2320        conv2d_2[0][0]                   
__________________________________________________________________________________________________
conv2d_4 (Conv2D)               (None, 2, 2, 16)     2320        conv2d_3[0][0]                   
__________________________________________________________________________________________________
flatten_1 (Flatten)             (None, 64)           0           conv2d_4[0][0]                   
__________________________________________________________________________________________________
dropout_1 (Dropout)             (None, 64)           0           flatten_1[0][0]                  
__________________________________________________________________________________________________
dense_1 (Dense)                 (None, 32)           2080        dropout_1[0][0]                  
__________________________________________________________________________________________________
dense_2 (Dense)                 (None, 7)            231         dense_1[0][0]                    
__________________________________________________________________________________________________
dense_3 (Dense)                 (None, 7)            231         dense_1[0][0]                    
__________________________________________________________________________________________________
lambda_1 (Lambda)               (None, 7)            0           dense_2[0][0]                    
                                                                 dense_3[0][0]                    
__________________________________________________________________________________________________
dense_4 (Dense)                 (None, 32)           256         lambda_1[0][0]                   
__________________________________________________________________________________________________
dense_5 (Dense)                 (None, 64)           2112        dense_4[0][0]                    
__________________________________________________________________________________________________
reshape_1 (Reshape)             (None, 2, 2, 16)     0           dense_5[0][0]                    
__________________________________________________________________________________________________
conv2d_transpose_1 (Conv2DTrans (None, 2, 2, 16)     2320        reshape_1[0][0]                  
__________________________________________________________________________________________________
conv2d_transpose_2 (Conv2DTrans (None, 4, 4, 16)     2320        conv2d_transpose_1[0][0]         
__________________________________________________________________________________________________
conv2d_transpose_3 (Conv2DTrans (None, 12, 12, 16)   2320        conv2d_transpose_2[0][0]         
__________________________________________________________________________________________________
conv2d_transpose_4 (Conv2DTrans (None, 24, 24, 1)    145         conv2d_transpose_3[0][0]         
==================================================================================================
Total params: 19,135
Trainable params: 19,135
Non-trainable params: 0
__________________________________________________________________________________________________
Epoch 1/10
_________________________________________________
Epoch 1/10
_________________________________________________
…
W0615 16:04:55.948035 35184372403808 deprecation.py:323] From /sw/summit/ibm-wml-ce/anaconda-base/envs/ibm-wml-ce-1.6.2-3/lib/python3.6/site-packages/tensorflow_core/python/ops/nn_impl.py:183: where (from tensorflow.python.ops.array_ops) is deprecated and will be removed in a future version.
Instructions for updating:
Use tf.where in 2.0, which has the same broadcast rule as np.where
Model: "model_5"
__________________________________________________________________________________________________
Layer (type)                    Output Shape         Param #     Connected to                     
==================================================================================================
input_1 (InputLayer)            (None, 24, 24, 1)    0                                            
__________________________________________________________________________________________________
conv2d_1 (Conv2D)               (None, 12, 12, 16)   160         input_1[0][0]                    
__________________________________________________________________________________________________
conv2d_2 (Conv2D)               (None, 4, 4, 16)     2320        conv2d_1[0][0]                   
__________________________________________________________________________________________________
conv2d_3 (Conv2D)               (None, 2, 2, 16)     2320        conv2d_2[0][0]                   
__________________________________________________________________________________________________
conv2d_4 (Conv2D)               (None, 2, 2, 16)     2320        conv2d_3[0][0]                   
__________________________________________________________________________________________________
flatten_1 (Flatten)             (None, 64)           0           conv2d_4[0][0]                   
__________________________________________________________________________________________________
dropout_1 (Dropout)             (None, 64)           0           flatten_1[0][0]                  
__________________________________________________________________________________________________
dense_1 (Dense)                 (None, 32)           2080        dropout_1[0][0]                  
__________________________________________________________________________________________________
dense_2 (Dense)                 (None, 7)            231         dense_1[0][0]                    
__________________________________________________________________________________________________
dense_3 (Dense)                 (None, 7)            231         dense_1[0][0]                    
__________________________________________________________________________________________________
lambda_1 (Lambda)               (None, 7)            0           dense_2[0][0]                    
                                                                 dense_3[0][0]                    
__________________________________________________________________________________________________
dense_4 (Dense)                 (None, 32)           256         lambda_1[0][0]                   
__________________________________________________________________________________________________
dense_5 (Dense)                 (None, 64)           2112        dense_4[0][0]                    
__________________________________________________________________________________________________
reshape_1 (Reshape)             (None, 2, 2, 16)     0           dense_5[0][0]                    
__________________________________________________________________________________________________
conv2d_transpose_1 (Conv2DTrans (None, 2, 2, 16)     2320        reshape_1[0][0]                  
__________________________________________________________________________________________________
conv2d_transpose_2 (Conv2DTrans (None, 4, 4, 16)     2320        conv2d_transpose_1[0][0]         
__________________________________________________________________________________________________
conv2d_transpose_3 (Conv2DTrans (None, 12, 12, 16)   2320        conv2d_transpose_2[0][0]         
__________________________________________________________________________________________________
conv2d_transpose_4 (Conv2DTrans (None, 24, 24, 1)    145         conv2d_transpose_3[0][0]         
==================================================================================================
Total params: 19,135
Trainable params: 19,135
Non-trainable params: 0
__________________________________________________________________________________________________
Accuracy:  1.0

------------------------------------------------------------
Sender: LSF System <lsfadmin@batch4>
…
