…
conv3d_2 (Conv3D)               (None, 24, 24, 24, 6 110656      average_pooling3d_1[0][0]        
__________________________________________________________________________________________________
average_pooling3d_2 (AveragePoo (None, 12, 12, 12, 6 0           conv3d_2[0][0]                   
__________________________________________________________________________________________________
conv3d_3 (Conv3D)               (None, 12, 12, 12, 6 110656      average_pooling3d_2[0][0]        
__________________________________________________________________________________________________
average_pooling3d_3 (AveragePoo (None, 6, 6, 6, 64)  0           conv3d_3[0][0]                   
__________________________________________________________________________________________________
conv3d_4 (Conv3D)               (None, 6, 6, 6, 64)  110656      average_pooling3d_3[0][0]        
__________________________________________________________________________________________________
average_pooling3d_4 (AveragePoo (None, 3, 3, 3, 64)  0           conv3d_4[0][0]                   
__________________________________________________________________________________________________
flatten_1 (Flatten)             (None, 1728)         0           average_pooling3d_4[0][0]        
__________________________________________________________________________________________________
dropout_1 (Dropout)             (None, 1728)         0           flatten_1[0][0]                  
__________________________________________________________________________________________________
dense_1 (Dense)                 (None, 64)           110656      dropout_1[0][0]                  
__________________________________________________________________________________________________
dense_2 (Dense)                 (None, 12)           780         dense_1[0][0]                    
__________________________________________________________________________________________________
dense_3 (Dense)                 (None, 12)           780         dense_1[0][0]                    
__________________________________________________________________________________________________
lambda_1 (Lambda)               (None, 12)           0           dense_2[0][0]                    
                                                                 dense_3[0][0]                    
__________________________________________________________________________________________________
dense_4 (Dense)                 (None, 64)           832         lambda_1[0][0]                   
__________________________________________________________________________________________________
dense_5 (Dense)                 (None, 1728)         112320      dense_4[0][0]                    
__________________________________________________________________________________________________
reshape_1 (Reshape)             (None, 3, 3, 3, 64)  0           dense_5[0][0]                    
__________________________________________________________________________________________________
conv3d_transpose_1 (Conv3DTrans (None, 3, 3, 3, 64)  110656      reshape_1[0][0]                  
__________________________________________________________________________________________________
up_sampling3d_1 (UpSampling3D)  (None, 6, 6, 6, 64)  0           conv3d_transpose_1[0][0]         
__________________________________________________________________________________________________
conv3d_transpose_2 (Conv3DTrans (None, 6, 6, 6, 64)  110656      up_sampling3d_1[0][0]            
__________________________________________________________________________________________________
up_sampling3d_3 (UpSampling3D)  (None, 12, 12, 12, 6 0           conv3d_transpose_2[0][0]         
__________________________________________________________________________________________________
conv3d_transpose_3 (Conv3DTrans (None, 12, 12, 12, 6 110656      up_sampling3d_3[0][0]            
…
conv3d_2 (Conv3D)               (None, 24, 24, 24, 6 110656      average_pooling3d_1[0][0]        
__________________________________________________________________________________________________
average_pooling3d_2 (AveragePoo (None, 12, 12, 12, 6 0           conv3d_2[0][0]                   
__________________________________________________________________________________________________
conv3d_3 (Conv3D)               (None, 12, 12, 12, 6 110656      average_pooling3d_2[0][0]        
__________________________________________________________________________________________________
average_pooling3d_3 (AveragePoo (None, 6, 6, 6, 64)  0           conv3d_3[0][0]                   
__________________________________________________________________________________________________
conv3d_4 (Conv3D)               (None, 6, 6, 6, 64)  110656      average_pooling3d_3[0][0]        
__________________________________________________________________________________________________
average_pooling3d_4 (AveragePoo (None, 3, 3, 3, 64)  0           conv3d_4[0][0]                   
__________________________________________________________________________________________________
flatten_1 (Flatten)             (None, 1728)         0           average_pooling3d_4[0][0]        
__________________________________________________________________________________________________
dropout_1 (Dropout)             (None, 1728)         0           flatten_1[0][0]                  
__________________________________________________________________________________________________
dense_1 (Dense)                 (None, 64)           110656      dropout_1[0][0]                  
__________________________________________________________________________________________________
dense_2 (Dense)                 (None, 12)           780         dense_1[0][0]                    
__________________________________________________________________________________________________
dense_3 (Dense)                 (None, 12)           780         dense_1[0][0]                    
__________________________________________________________________________________________________
lambda_1 (Lambda)               (None, 12)           0           dense_2[0][0]                    
                                                                 dense_3[0][0]                    
__________________________________________________________________________________________________
dense_4 (Dense)                 (None, 64)           832         lambda_1[0][0]                   
__________________________________________________________________________________________________
dense_5 (Dense)                 (None, 1728)         112320      dense_4[0][0]                    
__________________________________________________________________________________________________
reshape_1 (Reshape)             (None, 3, 3, 3, 64)  0           dense_5[0][0]                    
__________________________________________________________________________________________________
conv3d_transpose_1 (Conv3DTrans (None, 3, 3, 3, 64)  110656      reshape_1[0][0]                  
____________________Model: "model_5"
__________________________________________________________________________________________________
Layer (type)                    Output Shape         Param #     Connected to                     
==================================================================================================
input_1 (InputLayer)            (None, 48, 48, 48, 4 0                                            
…
